sample_model/simple_model.onnx (onnx, 560 bytes, 4 tensors)

fc1.weight f4 [3, 4]
0.28608692 -0.2315883 0.116045594 0.23899144 -0.2412352 0.24673384 0.3780182 0.20175064
0.38798445 -0.063975394 -0.35010839 -0.027286172
00000000: fc79 923e 7c25 6dbe 50a9 ed3d 2cba 743e
00000010: 5c06 77be cca7 7c3e 9a8b c13e b897 4e3e
00000020: e6a5 c63e 8805 83bd 6841 b3be 4087 dfbc

fc1.bias f4 [3]
0.09069824 0.15017289 0.24672484
00000000: 00c0 b93d ecc6 193e 70a5 7c3e

fc2.weight f4 [2, 3]
0.5747445 -0.009388144 -0.36683393 -0.041568615 -0.5268116 -0.34874162
00000000: 7522 133f bbd0 19bc a8d1 bbbe da43 2abd
00000010: 20dd 06bf 438e b2be

fc2.bias f4 [2]
-0.45050994 0.31604373
00000000: 3da9 e6be 7cd0 a13e
